examples/double_cartpole/controllers/supervisor_manager/models/agent_0/e9990_actor.pkl (torch, 2775 bytes, 6 tensors)

fc1.weight f4 [10, 4]
00000000: 8cdc 45be 0465 153e 14b9 2c3e 80ae fbbb
00000010: 5543 0cc0 794c 9dbf 1c70 c4bf 2385 333f
00000020: e724 0140 d070 853f 6648 0640 9fc2 03bf
00000030: c414 a0be 7e93 dabe 20b1 b03d a0bc ab3d
00000040: bb8d 273e 805d 00bf ea9c 92be 36bf bebe
00000050: 3117 c13f abe3 4d3f 42ce ec3f bfcf 1dbe
00000060: fe42 d1be 20be 8b3c 00d0 54bb c87a a33d
00000070: 41a7 01c0 8452 00bf fffc 99bf 1f58 a83e
00000080: afc9 0fc0 796d b7be 7a28 cdbf 7040 f23e
00000090: 29ad fbbf 1b4d 87bf e836 eabf cbae 7a3d
-0.19322413 0.14589316 0.16867477 -0.007680714 -2.1916096 -1.2288963 -1.5346713 0.70125026
2.0178773 1.0425053 2.0981688 -0.51468843 -0.31265843 -0.42690653 0.08627534 0.08385587
0.1636266 -0.5014267 -0.2863534 -0.37255257 1.5085202 0.8042552 1.8500445 -0.1541128
-0.40871423 0.017058432 -0.003247261 0.07982403 -2.0258334 -0.5012591 -1.2030333 0.3287973
-2.2466848 -0.35825709 -1.6027977 0.47314787 -1.9662219 -1.0570406 -1.8298006 0.06120185

fc1.bias f4 [10]
00000000: 9ecb 8dbe 1eb6 f13e 9942 b3bd 0803 1fbe
00000010: c6cb 81be c8fb ffbd 904a ffbe e4ed 0c3f
00000020: 61fa fe3e b5e7 113f
-0.2769441 0.47209257 -0.08752937 -0.155285 -0.2535078 -0.12499195 -0.49861574 0.5505049
0.498004 0.5699418

fc2.weight f4 [10, 10]
00000000: 70ba dfbc e6b9 fa3f d720 21bf 13c5 98be
00000010: 1196 f03d a9e5 53bf 7667 03be 8d59 043f
00000020: 6ebc e43f c8b4 2440 7d98 803e 1f32 e33f
00000030: 9c78 8dbf 22b3 a2bd 4e75 4bbd 02d7 4fbf
00000040: 787b 233e c502 2f3f 63fc e43f 5925 0940
00000050: 088d 03bd fc7c 14c0 5169 953f 00ab 36be
00000060: dd88 be3d c13f 593f 1e01 723e e1c5 ecbe
00000070: c87b b3bf 5571 23c0 6c65 78be f3f4 df3d
00000080: c760 b7be 4045 003d 0f64 563e 6da1 50bd
00000090: 406d be3b f12c 9fbe c8ab 7a3e 93e8 3bbe
000000a0: 4e04 1fbe 0fc1 89be 3c57 963d 5855 48bd
000000b0: 0364 963e aadf 38be c2b9 4b3e 1065 61be
000000c0: 1806 54bd 2608 583e bfd8 873e b834 de3f
000000d0: 5342 93bf 39b3 88be 5ce7 d8bd e11a 0ebf
000000e0: 9248 203e 9e0d 463f 406a e13f 8f25 0c40
000000f0: b48a 2cbe 1535 f73f 3912 86bf 8865 3b3e
00000100: 05e5 54be c312 29bf 885a 1e3d 1e2b 723f
00000110: 239e c63f 26f4 1440 74f6 38be 43c5 edbf
00000120: 499c ce3f e5ed 95be ae04 ecbd 697b 7d3f
00000130: d81c 56be 0c53 84bd 4ed8 aebf 4b55 0cc0
00000140: 6679 9bbe 60ff 6a3d a881 fcbd 9526 50be
00000150: 2f56 9dbe 7122 48be 5a5c d7bd 2e32 24be
00000160: 4ad5 3b3e 5299 edbd 4a79 433e e00f 243d
00000170: e0a6 373e e053 973d 68f8 b03d 7616 623c
00000180: feed 2ebe 8029 a1be 8e92 83be 107c ed3c
-0.02731058 1.9587982 -0.62940735 -0.29837856 0.11747373 -0.8277231 -0.12832436 0.51699144
1.7870004 2.573534 0.2511634 1.7749671 -1.1052432 -0.07944323 -0.049672417 -0.8118745
0.15965068 0.683636 1.7889522 2.1429045 -0.03211692 -2.3201284 1.1672765 -0.17838669
0.09303448 0.84862906 0.23633239 -0.4624472 -1.402215 -2.5537922 -0.2425744 0.10935392
-0.35816023 0.031316042 0.20936607 -0.050935198 0.0058113635 -0.31088975 0.24479592 -0.18350439
-0.15528986 -0.26905105 0.073408574 -0.048909515 0.29373178 -0.18054071 0.1989508 -0.22011209
-0.051763624 0.21096858 0.26532552 1.7359838 -1.1504616 -0.26699236 -0.10591003 -0.55509764
0.15652683 0.7736453 1.761055 2.1897924 -0.16849786 1.9313074 -1.0474311 0.1830045
-0.20790489 -0.66044253 0.038660556 0.9459704 1.551701 2.3274016 -0.18062764 -1.8575824
1.6141444 -0.29283062 -0.1152433 0.99016434 -0.2090944 -0.064611524 -1.3659761 -2.1927059
-0.30366057 0.05737245 -0.123294175 -0.20327218 -0.30729815 -0.19544388 -0.105156615 -0.16034767
0.18343082 -0.11601509 0.19089237 0.040054202 0.17934752 0.07389045 0.0864113 0.0137993
-0.17082974 -0.31476974 -0.2569775 0.028989822

fc2.bias f4 [10]
00000000: 5b33 013f 4bc6 2a3f 3df4 f13e 1ecc 4f3d
00000010: ba98 92be 1687 093f 339a 173f 1320 de3b
00000020: b87c 98bd 86ab b2be
0.5046899 0.6670882 0.47256652 0.05073177 -0.28632146 0.5372175 0.59219664 0.006778726
-0.07445663 -0.34896487

action_head.weight f4 [2, 10]
00000000: e6b4 14c0 ed85 01c0 067e c63f 9ff0 39bd
00000010: eca0 fbbd fa6f 04c0 8b3d 04c0 9ace c43f
00000020: 7268 36be 2cfa 833d 3ea7 0a40 873a 1440
00000030: 6115 debf c898 61be 285a cf3d 1e0c 0c40
00000040: f148 0740 d372 9cbf 88d6 c33d 8e52 753d
-2.3235412 -2.0237992 1.5507209 -0.04539549 -0.12286553 -2.0693345 -2.0662563 1.537555
-0.1781328 0.06444201 2.1664577 2.3160722 -1.7350274 -0.22030938 0.10124618 2.1882396
2.113827 -1.2222542 0.09562403 0.059893183

action_head.bias f4 [2]
00000000: 8386 1f3e 7c14 6ebe
0.15578656 -0.23250002
