examples/double_cartpole/controllers/supervisor_manager/models/agent_1/e8991_actor.pkl (torch, 2775 bytes, 6 tensors)

fc1.weight f4 [10, 4]
1.0122855 0.18479097 1.6757976 -1.1170807 -2.1128633 -0.0833018 -1.627718 0.949623
-1.6316047 -0.4951402 -1.7538277 1.1338892 0.31636006 -0.40007567 0.03499776 -0.20066798
1.5389538 0.20756173 1.5587246 -1.8083037 1.1034571 0.07428433 1.2570443 -0.8946102
-1.649365 -0.6287748 -1.9363681 1.3523643 1.3657941 -0.01810335 1.4236451 -0.8198477
1.5184652 0.07672001 1.6220192 -1.3761672 -1.2566848 -0.46244714 -1.8131653 1.6827879
00000000: 9292 813f d839 3d3e 8980 d63f 80fc 8ebf
00000010: 2739 07c0 229a aabd 1059 d0bf 7e1a 733f
00000020: 6cd8 d0bf 0483 fdbe 6d7d e0bf 4823 913f
00000030: f2f9 a13e b8d6 ccbe d059 0f3d e87b 4dbe
00000040: 70fc c43f 108b 543e 4a84 c73f 7f76 e7bf
00000050: 153e 8d3f 6222 983d d4e6 a03f 2d05 65bf
00000060: 641e d3bf 63f7 20bf e9da f7bf 461a ad3f
00000070: 57d2 ae3f 7a4d 94bc 013a b63f 8ae1 51bf
00000080: 115d c23f 611f 9d3d 539e cf3f 3f26 b0bf
00000090: 0cdb a0bf dfc5 ecbe cd15 e8bf 9865 d73f

fc1.bias f4 [10]
0.80858755 -0.31552446 -0.30193636 -0.06361586 0.7169775 0.80121905 -0.26711503 0.4884846
0.8058519 -0.32057643
00000000: 98ff 4e3f 6c8c a1be 6797 9abe 0849 82bd
00000010: d68b 373f b11c 4d3f 4dc3 88be a71a fa3e
00000020: 4f4c 4e3f 9822 a4be

fc2.weight f4 [10, 10]
0.15895995 0.047491707 -0.108866334 0.26428714 -0.31898075 0.25584015 0.09811291 -0.12271778
0.05352879 -0.31473744 -0.82392037 0.90865225 1.5267376 -0.06965135 -1.2665364 -0.39380327
1.3621408 -1.7506616 -0.8429673 1.3790355 -0.24459684 -0.25669307 0.015707731 -0.3027687
0.08523035 -0.012165338 0.2828733 0.025990635 -0.019276768 -0.11042164 1.1716974 -0.8925502
-1.2653806 0.006006092 1.2064332 1.0102043 -0.9394321 1.2060323 1.2468145 -1.2655944
-0.9640181 1.2697319 1.1917497 0.007737905 -0.72019285 -0.53901035 1.4505208 -1.51422
-0.77514714 1.0638424 -0.08512936 -0.16506982 0.13692087 -0.2568296 -0.22434998 0.019236684
-0.1348389 0.2010612 0.26120412 -0.010911167 0.0055636764 -0.23893821 -0.23538797 0.23060039
-0.3004247 -0.2067067 0.19005886 -0.23378402 -0.054347426 0.14968741 -0.7357351 1.2963501
1.4997756 0.15901446 -1.317122 -0.42713627 1.4926245 -1.7024827 -0.9020008 1.2094367
-0.19992784 0.25302508 0.26037705 0.102479935 -0.10564369 -0.10795525 0.093163066 0.11387635
0.018386407 -0.15374191 1.3093313 -1.1108576 -1.4039797 -0.13479887 1.4595507 0.9026935
-1.2421958 1.5561457 1.1894212 -1.1260026
00000000: 66c6 223e aa86 423d 50f5 debd a550 873e
00000010: 7251 a3be 7bfd 823e 6cef c83d 7653 fbbd
00000020: 0141 5b3d 4425 a1be 72ec 52bf 6f9d 683f
00000030: 236c c33f 5ea5 8ebd dd1d a2bf 95a0 c9be
00000040: a15a ae3f ae15 e0bf b4cc 57bf 3c84 b03f
00000050: 9877 7abe 466d 83be 80ad 803c 8004 9bbe
00000060: 408d ae3d 2051 47bc c5d4 903e 50ea d43c
00000070: 50ea 9dbc be24 e2bd 2efa 953f 2b7e 64bf
00000080: fef7 a1bf c0ce c43b 676c 9a3f 604e 813f
00000090: 9f7e 70bf 445f 9a3f 9e97 9f3f fffe a1bf
000000a0: e4c9 76bf 9386 a23f 418b 983f 408e fd3b
000000b0: 8f5e 38bf 95fc 09bf aaaa b93f f6d1 c1bf
000000c0: 0b70 46bf fd2b 883f 4d58 aebd 1008 29be
000000d0: fc34 0c3e 2b7f 83be 00bc 65be 4096 9d3c
000000e0: 3513 0abe fde2 4d3e 8cbc 853e c0c4 32bc
000000f0: 804f b63b 38ac 74be 8b09 71be 8222 6c3e
00000100: 44d1 99be ecaa 53be ca9e 423e 1465 6fbe
00000110: 689b 5ebd a847 193e 2359 3cbf cdee a53f
00000120: a6f8 bf3f b0d4 223e 7497 a8bf 9bb1 dabe
00000130: 520e bf3f f4ea d9bf 86e9 66bf d2ce 9a3f
00000140: e2b9 4cbe 818c 813e 2450 853e 00e1 d13d
00000150: b85b d8bd a417 ddbd 47cc be3d 0138 e93d
00000160: 179f 963c 856e 1dbe 2b98 a73f 9530 8ebf
00000170: 9bb5 b3bf b708 0abe 8fd2 ba3f ec16 673f
00000180: 4600 9fbf c82f c73f f43e 983f da20 90bf

fc2.bias f4 [10]
-0.20625988 0.11706609 -0.31354022 0.50186217 0.108879425 -0.20080301 -0.30213806 0.061061196
-0.30519873 0.51456463
00000000: ca35 53be 59c0 ef3d 5888 a0be 0a7a 003f
00000010: 2dfc de3d 4e9f 4dbe d7b1 9abe 4e1b 7a3d
00000020: 0243 9cbe 82ba 033f

action_head.weight f4 [2, 10]
-0.24805 -2.1248686 -0.122327775 1.5686011 -2.0919423 -0.11751711 0.033733606 -1.6475867
-0.18583801 1.9674184 0.020056946 1.7569498 -0.27533782 -1.5472925 2.0191905 -0.07802194
-0.032634497 1.9993134 0.06721766 -1.7430106
00000000: d200 7ebe d9fd 07c0 fc86 fabd ecc7 c83f
00000010: 62e2 05c0 d0ac f0bd 402c 0a3d 1fe4 d2bf
00000020: 524c 3ebe 5ed4 fb3f 774e a43c bbe3 e03f
00000030: 14f9 8cbe ae0d c6bf 6b3a 0140 f8c9 9fbd
00000040: c0ab 05bd 80e9 ff3f 6aa9 893d f91a dfbf

action_head.bias f4 [2]
-0.02855899 -0.08719538
00000000: 8bf4 e9bc 7e93 b2bd
