examples/double_cartpole/controllers/supervisor_manager/models/naive_env/agent_0/e3996_critic.pkl (torch, 2711 bytes, 5 tensors)

fc1.weight f4 [10, 4]
000000 44 e0 50 41 fc 00 c1 41 45 4f b7 40 ab b3 f2 c1
       13.054752 24.12548 5.7284265 -30.337729
000010 49 18 07 c1 f4 d7 6e 41 3d 18 f1 bf d2 64 b4 c1
       -8.443429 14.927723 -1.8835522 -22.549229
000020 dd d3 47 41 83 43 c4 41 ac 7a b6 40 bc 51 f4 c1
       12.489224 24.532965 5.7024746 -30.53991
000030 42 11 ae 40 76 51 bb 41 85 97 88 3f b8 a2 fc c1
       5.4396067 23.414776 1.067124 -31.579453
000040 ce 93 6f c1 83 b1 a6 41 d1 13 4d c0 fa 34 0d c2
       -14.973585 20.836676 -3.2043345 -35.301735
000050 fc 91 59 c1 26 e4 c2 41 b0 60 2f c0 ae 65 12 c2
       -13.598141 24.3614 -2.7402763 -36.599297
000060 91 01 36 41 35 01 c5 41 32 b1 8f 40 3d 9c fe c1
       11.375382 24.62559 4.4903803 -31.826288
000070 70 4e 91 3d 10 b4 21 3d 54 4c 03 3e 80 46 db be
       0.07095039 0.03947836 0.12822086 -0.42827225
000080 1a 5e e8 be 00 be b5 3e fc 16 e9 be be d2 c9 be
       -0.45384294 0.3549652 -0.45525348 -0.39418596
000090 d5 c1 e6 c0 33 37 b8 41 d2 52 43 bf 34 ed 0c c2
       -7.211161 23.026953 -0.7629825 -35.231644

fc1.bias f4 [10]
000000 6c ec d8 3e 45 1f ce bd 92 44 b1 3e 37 36 a0 3f
       0.42367876 -0.10064558 0.34622627 1.2516545
000010 80 4e c3 3f 6b ca ac 3f d0 a9 8d 3e 7c d2 1a be
       1.5258331 1.3499273 0.2766862 -0.15119356
000020 b2 94 f0 be bc 7d 7a 3f
       -0.46988446 0.97848105

fc2.weight f4 [10, 10]
000000 62 fd 05 40 c7 81 99 3f a7 08 18 40 de ae f9 3f
       2.0935903 1.199273 2.375528 1.950649
000010 5a 8d 27 3f fa 88 25 3f e2 4e 0f 40 88 9a c3 bd
       0.6545006 0.64662135 2.2391896 -0.09550959
000020 50 55 a9 3d 9f 0e 8b 3f 84 d3 25 40 f4 32 3f 3f
       0.08268225 1.0863837 2.591035 0.74687123
000030 c6 9d 17 40 1c 9a dd 3f 52 3c 4c 3f 0c 41 39 3f
       2.3690047 1.7312655 0.7977954 0.7236488
000040 83 91 e2 3f 66 f9 10 be 9a d4 90 be f6 c2 50 3f
       1.7700657 -0.14157638 -0.28287202 0.81547487
000050 7b c5 a5 3f 05 95 75 bf e3 0e a3 3f 0a a8 9b 3c
       1.2950891 -0.9593051 1.2738918 0.019001026
000060 7f c0 ae c0 47 57 9d c0 23 f7 8c 3f 90 61 8c 3c
       -5.460998 -4.916904 1.101292 0.017136365
000070 d5 0f 8d 3e de b0 8f bf 8c bc f4 3f 0c ae bb 3e
       0.2755114 -1.122585 1.912004 0.36656225
000080 3c 34 e4 3f 10 c3 e6 3f e0 8a cd bf b5 7c be bf
       1.7828441 1.8028278 -1.6058006 -1.4881808
000090 b9 8d ae 3f 5a 3c 36 3e 49 a8 93 3e d3 1f 26 3f
       1.3637 0.1779646 0.2883933 0.6489231
0000a0 be 8a 0c 3e 49 54 8a 3e e8 1a 9e be c0 66 02 be
       0.13724801 0.2701743 -0.30879903 -0.12734509
0000b0 68 ad 8d be ce 68 57 3e a0 ba 0c 3e ac cb 50 be
       -0.2767136 0.21036074 0.13743067 -0.20390195
0000c0 f2 aa 5f 3e e8 29 3e bd 11 26 8c bd 16 9f e5 be
       0.21842554 -0.046426684 -0.06843198 -0.44847935
0000d0 f4 e2 e8 3d 09 95 4d 3e 43 ae 0f be b1 3a 96 be
       0.11371413 0.20076384 -0.1403132 -0.29341653
0000e0 04 72 e7 bd 80 57 83 3c 43 10 3a be 97 10 43 be
       -0.11301044 0.016032934 -0.18170266 -0.19049297
0000f0 f1 cf bb 3d 7e 2c 83 be 76 61 94 be f6 ae 1c 3d
       0.09170521 -0.25619882 -0.28980607 0.038252793
000100 5e cb be be a4 c0 29 be 63 a5 5f 3d f2 f4 c9 bd
       -0.37264532 -0.16577393 0.054601084 -0.09861173
000110 ec 8a 9f be 20 db fe 3c 80 40 1f 40 db 4f 58 3f
       -0.31160676 0.031110346 2.4883118 0.8449685
000120 38 7f 18 40 c2 f5 c0 3f 19 82 b1 3e 44 3e 69 3f
       2.3827648 1.5074999 0.3466957 0.91110635
000130 9e b4 f4 3f e2 f7 38 3e b0 6c 2f 3d 5f bd 53 3f
       1.911762 0.1806331 0.04282826 0.8271083
000140 1a 65 d5 bd 16 76 81 3e bb 52 98 be b5 38 ad 3d
       -0.10419674 0.25285405 -0.29750618 0.08458082
000150 12 76 8a be 54 c8 6a 3d 56 f5 37 3d 70 12 a3 bc
       -0.27043205 0.057319954 0.044911705 -0.019906253
000160 79 39 9e 3e fe af 8d bd f1 6e 92 c0 bb 06 65 bd
       0.30903223 -0.069183335 -4.5760427 -0.05591462
000170 33 21 b5 c0 4a 62 d8 3d e8 a5 ab 3f 53 fe 67 3f
       -5.6603026 0.10565622 1.3410006 0.9062244
000180 b9 03 80 c0 40 26 81 3b af 22 76 be 80 4a 0e 3f
       -4.0004544 0.0039413273 -0.24036668 0.5558243

fc2.bias f4 [10]
000000 34 f3 6b 3f 79 87 85 3f af 58 c5 bf b7 f3 45 bc
       0.92167974 1.0431968 -1.5417689 -0.012082032
000010 aa c6 82 be 79 c9 92 be 2c f5 ef 3a 66 f1 91 3f
       -0.25542194 -0.28669336 0.001830732 1.1401794
000020 e2 f0 51 3d 4e 19 12 3f
       0.051255114 0.5706986

state_value.weight f4 [1, 10]
000000 5e 4a ce 3f 2f 10 c5 3f 03 6a af c0 ac de 69 c0
       1.6116445 1.5395564 -5.481691 -3.6542158
000010 10 81 c1 3d e1 ec 80 bc 5e bd cf bd 01 0f e0 3f
       0.09448445 -0.015737953 -0.10143541 1.7504579
000020 d1 ce 88 3c 2d 23 a5 c0
       0.01670018 -5.160544
