examples/double_cartpole/controllers/supervisor_manager/models/naive_env/agent_0/e6993_actor.pkl (torch, 2775 bytes, 6 tensors)

fc1.weight f4 [10, 4]
0	0xbe45dc8c	-0.19322413
1	0x3e156504	0.14589316
2	0x3e2cb914	0.16867477
3	0xbbfbae80	-0.007680714
4	0xc01384ac	-2.3049726
5	0xbf5cbdbf	-0.8622703
6	0xbfb88789	-1.4416362
7	0x3e0489a1	0.12943126
8	0x40065783	2.0990913
9	0x3f3af69d	0.7303255
10	0x400077b5	2.0073063
11	0x3c4f644b	0.012658189
12	0xbea014c4	-0.31265843
13	0xbeda937e	-0.42690653
14	0x3db0b120	0.08627534
15	0x3dabbca0	0.08385587
16	0x3e278dbb	0.1636266
17	0xbf005d80	-0.5014267
18	0xbe929cea	-0.2863534
19	0xbebebf36	-0.37255257
20	0x3fcabfd3	1.583979
21	0x3f01deea	0.50730765
22	0x3fe22f06	1.76706
23	0x3eb52cfa	0.35385877
24	0xbed142fe	-0.40871423
25	0x3c8bbe20	0.017058432
26	0xbb54d000	-0.003247261
27	0x3da37ac8	0.07982403
28	0xc00571b9	-2.085066
29	0xbe507458	-0.20356882
30	0xbf8b33c5	-1.0875174
31	0xbe56a498	-0.20961225
32	0xc014d0e3	-2.3252494
33	0xbcca0bd7	-0.024663849
34	0xbfbfc385	-1.4981543
35	0xbdca2c0d	-0.09871683
36	0xc0059ddf	-2.0877607
37	0xbf301f54	-0.687978
38	0xbfdf1ff4	-1.7431626
39	0xbf039d4c	-0.5141189

fc1.bias f4 [10]
0	0xbe8dcb9e	-0.2769441
1	0x3efda92b	0.49543127
2	0xbde5510b	-0.11197098
3	0xbe1f0308	-0.155285
4	0xbe81cbc6	-0.2535078
5	0xbe11eeb2	-0.14251211
6	0xbeff4a90	-0.49861574
7	0x3f198bb4	0.59978795
8	0x3f0941ee	0.53616226
9	0x3f164e39	0.5871311

fc2.weight f4 [10, 10]
0	0xbcdfba70	-0.02731058
1	0x3fd8fc50	1.6952
2	0xbf120a11	-0.5704661
3	0xbe98c513	-0.29837856
4	0x3df09611	0.11747373
5	0xbf44a765	-0.76817924
6	0xbe036776	-0.12832436
7	0x3f02a5b6	0.51034105
8	0x3fc90433	1.5704406
9	0x401036bd	2.253341
10	0x3e80987d	0.2511634
11	0x3fc1309e	1.5092962
12	0xbf81fe76	-1.015578
13	0xbda2b322	-0.07944323
14	0xbd4b754e	-0.049672417
15	0xbf3883d5	-0.7207616
16	0x3e237b78	0.15965068
17	0x3f322d2c	0.69600177
18	0x3fc94647	1.5724572
19	0x3fe93a64	1.8220944
20	0xbd038d08	-0.03211692
21	0xc003ab8d	-2.0573456
22	0x3f869493	1.0514091
23	0xbe36ab00	-0.17838669
24	0x3dbe88dd	0.09303448
25	0x3f3b76d0	0.7322817
26	0x3e72011e	0.23633239
27	0xbf0183a5	-0.505915
28	0xbf974caf	-1.1820277
29	0xc00f1472	-2.235623
30	0xbe78656c	-0.2425744
31	0x3ddff4f3	0.10935392
32	0xbeb760c7	-0.35816023
33	0x3d004540	0.031316042
34	0x3e56640f	0.20936607
35	0xbd50a16d	-0.050935198
36	0x3bbe6d40	0.0058113635
37	0xbe9f2cf1	-0.31088975
38	0x3e7aabc8	0.24479592
39	0xbe3be893	-0.18350439
40	0xbe1f044e	-0.15528986
41	0xbe89c10f	-0.26905105
42	0x3d96573c	0.073408574
43	0xbd485558	-0.048909515
44	0x3e966403	0.29373178
45	0xbe38dfaa	-0.18054071
46	0x3e4bb9c2	0.1989508
47	0xbe616510	-0.22011209
48	0xbd540618	-0.051763624
49	0x3e580826	0.21096858
50	0x3e87d8bf	0.26532552
51	0x3fbb3f8c	1.4628768
52	0xbf8bbcc4	-1.0916982
53	0xbe88b339	-0.26699236
54	0xbdd8e75c	-0.10591003
55	0xbefce7f1	-0.49395707
56	0x3e204892	0.15652683
57	0x3f3f9b99	0.748468
58	0x3fc226f1	1.5168134
59	0x3fee7435	1.8629214
60	0xbe2c8ab4	-0.16849786
61	0x3fd577b9	1.6677161
62	0xbf7ea08f	-0.9946374
63	0x3e3b6588	0.1830045
64	0xbe54e505	-0.20790489
65	0xbf1b6bed	-0.60711557
66	0x3d1e5a88	0.038660556
67	0x3f6f3724	0.9344351
68	0x3faadb7a	1.3348229
69	0x400076ce	2.0072513
70	0xbe38f674	-0.18062764
71	0xbfcc2029	-1.5947315
72	0x3fbfda83	1.498856
73	0xbe95ede5	-0.29283062
74	0xbdec04ae	-0.1152433
75	0x3f5fd84f	0.87439436
76	0xbe561cd8	-0.2090944
77	0xbddc18c4	-0.10746911
78	0xbf929435	-1.1451479
79	0xbfefedd9	-1.874446
80	0xbe9b7966	-0.30366057
81	0x3d6aff60	0.05737245
82	0xbdfc81a8	-0.123294175
83	0xbe502695	-0.20327218
84	0xbe9d562f	-0.30729815
85	0xbe482271	-0.19544388
86	0xbdd75c5a	-0.105156615
87	0xbe24322e	-0.16034767
88	0x3e3bd54a	0.18343082
89	0xbded9952	-0.11601509
90	0x3e43794a	0.19089237
91	0x3d240fe0	0.040054202
92	0x3e3794f9	0.17927922
93	0x3d9753e0	0.07389045
94	0x3db0f868	0.0864113
95	0x3c612138	0.01374083
96	0xbe2eedfe	-0.17082974
97	0xbea12980	-0.31476974
98	0xbe83928e	-0.2569775
99	0x3ced7c10	0.028989822

fc2.bias f4 [10]
0	0x3f04ecda	0.51923907
1	0x3f34e026	0.70654523
2	0x3ecde85e	0.40216345
3	0x3d4fcc1e	0.05073177
4	0xbe9298ba	-0.28632146
5	0x3f0ae64b	0.5425765
6	0x3f19deb9	0.6010547
7	0xbd810d60	-0.06301379
8	0xbd987cb8	-0.07445663
9	0xbeb2b06b	-0.3490022

action_head.weight f4 [2, 10]
0	0xc0082941	-2.127518
1	0xbfe63333	-1.7984375
2	0x3faf450f	1.369295
3	0xbd39f09f	-0.04539549
4	0xbdfba0ec	-0.12286553
5	0xbfe7074c	-1.8049102
6	0xbfefe7ae	-1.8742578
7	0x3facf4d6	1.3512218
8	0xbe366872	-0.1781328
9	0x3d83fa2c	0.06444201
10	0x3ffc3741	1.9704362
11	0x4005ce25	2.090707
12	0xbfc6dc6e	-1.553602
13	0xbe6198c8	-0.22030938
14	0x3dcf5a28	0.10124618
15	0x3ff63fbd	1.9238201
16	0x3ff5fe84	1.9218297
17	0xbf8498f8	-1.0359182
18	0x3dc3d688	0.09562403
19	0x3d755081	0.059891228

action_head.bias f4 [2]
0	0x3da8103d	0.08206222
1	0xbe229624	-0.15877587
