examples/double_cartpole/controllers/supervisor_manager/models/naive_env/agent_1/e0_actor.pkl (torch, 2775 bytes, 6 tensors)

fc1.weight f4 [10, 4]
000000 97 cf eb be bc 69 45 be 51 85 f9 3e ac e8 53 3e
       -0.46056816 -0.19278616 0.48734525 0.20694226
000010 a9 86 ed be 37 81 5e 3e 29 2a 3e 3d 4a 83 8d be
       -0.463918 0.21728979 0.046426926 -0.27639228
000020 68 36 3e be c8 93 77 be 9c a4 15 be e0 c8 74 bd
       -0.18575442 -0.24177468 -0.14613575 -0.05976188
000030 f2 f9 a1 3e b8 d6 cc be d0 59 0f 3d e8 7b 4d be
       0.31636006 -0.40007567 0.03499776 -0.20066798
000040 fc 5c d5 3d d5 cc 28 be 44 42 1a 3e 42 e5 00 bf
       0.10418126 -0.16484387 0.15064341 -0.5034982
000050 61 8f 73 be f0 ca ae be 60 fd 45 3e 1e ad d7 3e
       -0.23785163 -0.34139204 0.19334936 0.42124265
000060 f1 c5 4b be 2d ae ad be fe a7 ab be 9a 7d 03 3e
       -0.19899727 -0.33921948 -0.33526605 0.12840882
000070 cc 5d 58 bd 72 ad 94 be 11 82 46 be 8d f0 c2 3e
       -0.052823827 -0.29038578 -0.19385554 0.3807415
000080 d2 eb aa 3d 1f 2d 9f be b1 d2 39 3e 04 6c 44 bd
       0.083457604 -0.31089112 0.18146779 -0.047954574
000090 32 df b9 3e b0 39 38 be 52 8d d4 be ac fa f2 3e
       0.36303097 -0.17990756 -0.4151407 0.47456872

fc1.bias f4 [10]
000000 dc 83 a5 3e ee a9 98 3e 40 ca 3f bc 08 49 82 bd
       0.32327163 0.29817146 -0.011705935 -0.06361586
000010 ec ce 8e 3e 83 d1 c4 3e f0 fe 79 3d 2f 51 3f 3e
       0.27892244 0.38441095 0.061034143 0.18683313
000020 3b aa b5 3e 38 f6 01 be
       0.35481438 -0.12691581

fc2.weight f4 [10, 10]
000000 93 e1 25 3e dc f1 4e 3d 50 f5 de bd a5 50 87 3e
       0.16199331 0.050523624 -0.108866334 0.26428714
000010 01 c4 a1 be 01 8b 84 3e 6c ef c8 3d 76 53 fb bd
       -0.31594852 0.25887302 0.09811291 -0.12271778
000020 1b ad 67 3d 44 25 a1 be 7b 2d 0c 3e 3a 9f 73 be
       0.05656157 -0.31473744 0.13689224 -0.23791209
000030 c0 cc 38 3d 5e a5 8e bd 77 bd 88 be ed 86 12 3e
       0.04511714 -0.06965135 -0.2670705 0.14309283
000040 7c f7 8f 3d ff d4 79 be 47 c9 04 3d 40 9e 21 3e
       0.07029626 -0.24397658 0.032418516 0.15783024
000050 98 77 7a be 46 6d 83 be 80 ad 80 3c 80 04 9b be
       -0.24459684 -0.25669307 0.015707731 -0.3027687
000060 40 8d ae 3d 20 51 47 bc c5 d4 90 3e 50 ea d4 3c
       0.08523035 -0.012165338 0.2828733 0.025990635
000070 50 ea 9d bc be 24 e2 bd 97 20 06 3c 3b b6 51 3e
       -0.019276768 -0.11042164 0.008186481 0.20479672
000080 72 f8 3b 3e c0 ce c4 3b 85 01 04 3d 0f ac 63 3e
       0.18356493 0.006006092 0.03222801 0.22233604
000090 8a 11 76 3e c2 84 89 be d7 6e 2e 3e ce 9a ad bd
       0.24030128 -0.268591 0.1703447 -0.08476792
0000a0 05 a9 8c be 30 07 59 bd 1c d5 d6 bd 40 8e fd 3b
       -0.27472702 -0.05298537 -0.10489866 0.007737905
0000b0 a0 d7 50 3d 87 1a 83 be a9 c8 96 3e 1c e6 fa bd
       0.050986886 -0.25606176 0.29449967 -0.12250921
0000c0 8e 2f c5 bd 5f b5 87 be 78 ed 55 bd 10 08 29 be
       -0.09628211 -0.26505563 -0.05222842 -0.16506982
0000d0 fc 34 0c 3e 2b 7f 83 be f9 c9 43 be c0 97 56 3d
       0.13692087 -0.2568296 -0.19120015 0.052390814
0000e0 35 13 0a be c6 85 74 3e ad a0 96 3e c0 c4 32 bc
       -0.1348389 0.23879156 0.2941946 -0.010911167
0000f0 80 4f b6 3b 38 ac 74 be 8b 09 71 be 82 22 6c 3e
       0.0055636764 -0.23893821 -0.23538797 0.23060039
000100 44 d1 99 be ec aa 53 be ca 9e 42 3e 14 65 6f be
       -0.3004247 -0.2067067 0.19005886 -0.23378402
000110 68 9b 5e bd a8 47 19 3e bf d2 75 3e 02 2b 33 3e
       -0.054347426 0.14968741 0.24006175 0.17496875
000120 98 ce 0c 3d b0 d4 22 3e 93 f3 9e be 47 59 0a 3e
       0.03437671 0.15901446 -0.31045207 0.13510619
000130 d2 cf 53 3e cc 54 57 be 99 b0 46 bc 80 93 ab 3b
       0.20684746 -0.21028441 -0.012127065 0.005236089
000140 6b ad 17 be cf b0 91 3e bb 08 96 3e 00 e1 d1 3d
       -0.14812247 0.28455207 0.29303536 0.102479935
000150 56 73 96 bd 40 1f 95 bd a4 78 02 3e fa f9 17 3e
       -0.07346217 -0.07281351 0.12741333 0.14841452
000160 18 6a 36 3d df 29 01 be 44 44 17 3e 4a e5 7c be
       0.044534773 -0.12613629 0.14772135 -0.24696842
000170 12 e2 77 be b7 08 0a be 0c d0 92 3e c0 83 8a 3d
       -0.24207333 -0.13479887 0.28674352 0.067634106
000180 a3 e7 90 be fe df 8d 3d ce db d6 3d d8 e1 22 bd
       -0.28301725 0.06927489 0.10491143 -0.039766163

fc2.bias f4 [10]
000000 8c 1a 50 be 43 33 7e 3e 58 88 a0 be 31 02 a2 3d
       -0.20322627 0.24824242 -0.31354022 0.07910574
000010 58 66 2b 3d 74 66 2d be d7 b1 9a be 16 50 67 3e
       0.04184565 -0.16933614 -0.30213806 0.22589144
000020 e0 1b 8a be 47 d7 04 3c
       -0.26974392 0.008107967

action_head.weight f4 [2, 10]
000000 a3 82 80 be f9 3a 81 be fc 86 fa bd 6a 5d 20 3d
       -0.25099668 -0.25240305 -0.122327775 0.039151587
000010 80 e5 d1 bc 6a 65 45 be 40 2c 0a 3d bb 82 fb 3d
       -0.02562213 -0.19276968 0.033733606 0.12280794
000020 87 fe 83 be 0d 13 3a 3e 1a 72 bc 3c 64 8d ec bd
       -0.25780126 0.1817133 0.023003627 -0.115504056
000030 14 f9 8c be 45 31 92 bc 50 09 41 bd 80 1a 36 bb
       -0.27533782 -0.01784576 -0.04712802 -0.0027786791
000040 c0 ab 05 bd a3 67 6a 3e 66 85 0e 3e b3 d9 2e 3d
       -0.032634497 0.22891097 0.13918075 0.042688083

action_head.bias f4 [2]
000000 cd c2 78 be 30 3a 02 3e
       -0.2429306 0.1271751
